…
srun: Job step aborted: Waiting up to 32 seconds for job step to finish.
  File "main.py", line 4, in <module>
    import torch
  File "/mnt/lustre/lianqing/anaconda3/lib/python3.6/site-packages/torch/__init__.py", line 37, in <module>
slurmstepd: *** STEP 1542015.0 ON BJ-IDC1-10-10-30-130 CANCELLED AT 2018-03-26T10:53:06 ***
    import numpy as np
  File "/mnt/lustre/lianqing/anaconda3/lib/python3.6/site-packages/numpy/__init__.py", line 156, in <module>
[*] Make directories : logs/cifar10_2018-03-26_10-53-43
Files already downloaded and verified
regularizing:
----- begin to init cnn------
defaultdict(<class 'dict'>, {0: {'1x1': Sequential(
  (0): Conv2d(3, 128, kernel_size=(1, 1), stride=(1, 1), bias=False)
  (1): BatchNorm2d(128, eps=1e-05, momentum=0.1, affine=True)
  (2): ReLU(inplace)
), '3x3': Sequential(
  (0): Conv2d(3, 128, kernel_size=(3, 3), stride=(1, 1), padding=(1, 1), bias=False)
  (1): BatchNorm2d(128, eps=1e-05, momentum=0.1, affine=True)
  (2): ReLU(inplace)
), '5x5': Sequential(
  (0): Conv2d(3, 128, kernel_size=(5, 5), stride=(1, 1), padding=(2, 2), bias=False)
  (1): BatchNorm2d(128, eps=1e-05, momentum=0.1, affine=True)
  (2): ReLU(inplace)
), '1x3x1': Sequential(
  (0): Sequential(
    (0): Conv2d(3, 128, kernel_size=(1, 3), stride=(1, 1), padding=(0, 1), bias=False)
    (1): Conv2d(128, 128, kernel_size=(3, 1), stride=(1, 1), padding=(1, 0), bias=False)
  )
  (1): BatchNorm2d(128, eps=1e-05, momentum=0.1, affine=True)
  (2): ReLU(inplace)
)}, 1: {'1x1': Sequential(
  (0): Conv2d(128, 128, kernel_size=(1, 1), stride=(1, 1), bias=False)
  (1): BatchNorm2d(128, eps=1e-05, momentum=0.1, affine=True)
  (2): ReLU(inplace)
), '3x3': Sequential(
  (0): Conv2d(128, 128, kernel_size=(3, 3), stride=(1, 1), padding=(1, 1), bias=False)
  (1): BatchNorm2d(128, eps=1e-05, momentum=0.1, affine=True)
  (2): ReLU(inplace)
), '5x5': Sequential(
  (0): Conv2d(128, 128, kernel_size=(5, 5), stride=(1, 1), padding=(2, 2), bias=False)
  (1): BatchNorm2d(128, eps=1e-05, momentum=0.1, affine=True)
  (2): ReLU(inplace)
), '1x3x1': Sequential(
  (0): Sequential(
    (0): Conv2d(128, 128, kernel_size=(1, 3), stride=(1, 1), padding=(0, 1), bias=False)
    (1): Conv2d(128, 128, kernel_size=(3, 1), stride=(1, 1), padding=(1, 0), bias=False)
  )
  (1): BatchNorm2d(128, eps=1e-05, momentum=0.1, affine=True)
  (2): ReLU(inplace)
)}, 2: {'1x1': Sequential(
  (0): Conv2d(128, 128, kernel_size=(1, 1), stride=(1, 1), bias=False)
  (1): BatchNorm2d(128, eps=1e-05, momentum=0.1, affine=True)
  (2): ReLU(inplace)
), '3x3': Sequential(
  (0): Conv2d(128, 128, kernel_size=(3, 3), stride=(1, 1), padding=(1, 1), bias=False)
  (1): BatchNorm2d(128, eps=1e-05, momentum=0.1, affine=True)
  (2): ReLU(inplace)
), '5x5': Sequential(
  (0): Conv2d(128, 128, kernel_size=(5, 5), stride=(1, 1), padding=(2, 2), bias=False)
  (1): BatchNorm2d(128, eps=1e-05, momentum=0.1, affine=True)
  (2): ReLU(inplace)
), '1x3x1': Sequential(
  (0): Sequential(
    (0): Conv2d(128, 128, kernel_size=(1, 3), stride=(1, 1), padding=(0, 1), bias=False)
    (1): Conv2d(128, 128, kernel_size=(3, 1), stride=(1, 1), padding=(1, 0), bias=False)
  )
  (1): BatchNorm2d(128, eps=1e-05, momentum=0.1, affine=True)
  (2): ReLU(inplace)
)}, 3: {'1x1': Sequential(
  (0): Conv2d(128, 256, kernel_size=(1, 1), stride=(1, 1), bias=False)
  (1): BatchNorm2d(256, eps=1e-05, momentum=0.1, affine=True)
  (2): ReLU(inplace)
), '3x3': Sequential(
  (0): Conv2d(128, 256, kernel_size=(3, 3), stride=(1, 1), padding=(1, 1), bias=False)
  (1): BatchNorm2d(256, eps=1e-05, momentum=0.1, affine=True)
  (2): ReLU(inplace)
), '5x5': Sequential(
  (0): Conv2d(128, 256, kernel_size=(5, 5), stride=(1, 1), padding=(2, 2), bias=False)
  (1): BatchNorm2d(256, eps=1e-05, momentum=0.1, affine=True)
  (2): ReLU(inplace)
), '1x3x1': Sequential(
  (0): Sequential(
    (0): Conv2d(128, 256, kernel_size=(1, 3), stride=(1, 1), padding=(0, 1), bias=False)
    (1): Conv2d(256, 256, kernel_size=(3, 1), stride=(1, 1), padding=(1, 0), bias=False)
  )
  (1): BatchNorm2d(256, eps=1e-05, momentum=0.1, affine=True)
  (2): ReLU(inplace)
)}, 4: {'1x1': Sequential(
  (0): Conv2d(256, 256, kernel_size=(1, 1), stride=(1, 1), bias=False)
  (1): BatchNorm2d(256, eps=1e-05, momentum=0.1, affine=True)
  (2): ReLU(inplace)
), '3x3': Sequential(
  (0): Conv2d(256, 256, kernel_size=(3, 3), stride=(1, 1), padding=(1, 1), bias=False)
  (1): BatchNorm2d(256, eps=1e-05, momentum=0.1, affine=True)
  (2): ReLU(inplace)
), '5x5': Sequential(
  (0): Conv2d(256, 256, kernel_size=(5, 5), stride=(1, 1), padding=(2, 2), bias=False)
  (1): BatchNorm2d(256, eps=1e-05, momentum=0.1, affine=True)
  (2): ReLU(inplace)
), '1x3x1': Sequential(
  (0): Sequential(
    (0): Conv2d(256, 256, kernel_size=(1, 3), stride=(1, 1), padding=(0, 1), bias=False)
    (1): Conv2d(256, 256, kernel_size=(3, 1), stride=(1, 1), padding=(1, 0), bias=False)
  )
  (1): BatchNorm2d(256, eps=1e-05, momentum=0.1, affine=True)
  (2): ReLU(inplace)
)}, 5: {'1x1': Sequential(
  (0): Conv2d(256, 256, kernel_size=(1, 1), stride=(1, 1), bias=False)
  (1): BatchNorm2d(256, eps=1e-05, momentum=0.1, affine=True)
  (2): ReLU(inplace)
), '3x3': Sequential(
  (0): Conv2d(256, 256, kernel_size=(3, 3), stride=(1, 1), padding=(1, 1), bias=False)
  (1): BatchNorm2d(256, eps=1e-05, momentum=0.1, affine=True)
  (2): ReLU(inplace)
), '5x5': Sequential(
  (0): Conv2d(256, 256, kernel_size=(5, 5), stride=(1, 1), padding=(2, 2), bias=False)
  (1): BatchNorm2d(256, eps=1e-05, momentum=0.1, affine=True)
  (2): ReLU(inplace)
), '1x3x1': Sequential(
  (0): Sequential(
    (0): Conv2d(256, 256, kernel_size=(1, 3), stride=(1, 1), padding=(0, 1), bias=False)
    (1): Conv2d(256, 256, kernel_size=(3, 1), stride=(1, 1), padding=(1, 0), bias=False)
  )
  (1): BatchNorm2d(256, eps=1e-05, momentum=0.1, affine=True)
  (2): ReLU(inplace)
)}, 6: {'1x1': Sequential(
  (0): Conv2d(256, 512, kernel_size=(1, 1), stride=(1, 1), bias=False)
  (1): BatchNorm2d(512, eps=1e-05, momentum=0.1, affine=True)
  (2): ReLU(inplace)
), '3x3': Sequential(
  (0): Conv2d(256, 512, kernel_size=(3, 3), stride=(1, 1), padding=(1, 1), bias=False)
  (1): BatchNorm2d(512, eps=1e-05, momentum=0.1, affine=True)
  (2): ReLU(inplace)
), '5x5': Sequential(
  (0): Conv2d(256, 512, kernel_size=(5, 5), stride=(1, 1), padding=(2, 2), bias=False)
  (1): BatchNorm2d(512, eps=1e-05, momentum=0.1, affine=True)
  (2): ReLU(inplace)
), '1x3x1': Sequential(
  (0): Sequential(
    (0): Conv2d(256, 512, kernel_size=(1, 3), stride=(1, 1), padding=(0, 1), bias=False)
    (1): Conv2d(512, 512, kernel_size=(3, 1), stride=(1, 1), padding=(1, 0), bias=False)
  )
  (1): BatchNorm2d(512, eps=1e-05, momentum=0.1, affine=True)
  (2): ReLU(inplace)
)}, 7: {'1x1': Sequential(
  (0): Conv2d(512, 512, kernel_size=(1, 1), stride=(1, 1), bias=False)
  (1): BatchNorm2d(512, eps=1e-05, momentum=0.1, affine=True)
  (2): ReLU(inplace)
), '3x3': Sequential(
  (0): Conv2d(512, 512, kernel_size=(3, 3), stride=(1, 1), padding=(1, 1), bias=False)
  (1): BatchNorm2d(512, eps=1e-05, momentum=0.1, affine=True)
  (2): ReLU(inplace)
), '5x5': Sequential(
  (0): Conv2d(512, 512, kernel_size=(5, 5), stride=(1, 1), padding=(2, 2), bias=False)
  (1): BatchNorm2d(512, eps=1e-05, momentum=0.1, affine=True)
  (2): ReLU(inplace)
), '1x3x1': Sequential(
  (0): Sequential(
    (0): Conv2d(512, 512, kernel_size=(1, 3), stride=(1, 1), padding=(0, 1), bias=False)
    (1): Conv2d(512, 512, kernel_size=(3, 1), stride=(1, 1), padding=(1, 0), bias=False)
  )
  (1): BatchNorm2d(512, eps=1e-05, momentum=0.1, affine=True)
  (2): ReLU(inplace)
)}, 8: {'1x1': Sequential(
  (0): Conv2d(512, 512, kernel_size=(1, 1), stride=(1, 1), bias=False)
  (1): BatchNorm2d(512, eps=1e-05, momentum=0.1, affine=True)
  (2): ReLU(inplace)
), '3x3': Sequential(
  (0): Conv2d(512, 512, kernel_size=(3, 3), stride=(1, 1), padding=(1, 1), bias=False)
  (1): BatchNorm2d(512, eps=1e-05, momentum=0.1, affine=True)
  (2): ReLU(inplace)
), '5x5': Sequential(
  (0): Conv2d(512, 512, kernel_size=(5, 5), stride=(1, 1), padding=(2, 2), bias=False)
  (1): BatchNorm2d(512, eps=1e-05, momentum=0.1, affine=True)
  (2): ReLU(inplace)
), '1x3x1': Sequential(
  (0): Sequential(
    (0): Conv2d(512, 512, kernel_size=(1, 3), stride=(1, 1), padding=(0, 1), bias=False)
    (1): Conv2d(512, 512, kernel_size=(3, 1), stride=(1, 1), padding=(1, 0), bias=False)
  )
  (1): BatchNorm2d(512, eps=1e-05, momentum=0.1, affine=True)
  (2): ReLU(inplace)
)}, 9: {'1x1': Sequential(
  (0): Conv2d(512, 1024, kernel_size=(1, 1), stride=(1, 1), bias=False)
  (1): BatchNorm2d(1024, eps=1e-05, momentum=0.1, affine=True)
  (2): ReLU(inplace)
), '3x3': Sequential(
  (0): Conv2d(512, 1024, kernel_size=(3, 3), stride=(1, 1), padding=(1, 1), bias=False)
  (1): BatchNorm2d(1024, eps=1e-05, momentum=0.1, affine=True)
  (2): ReLU(inplace)
), '5x5': Sequential(
  (0): Conv2d(512, 1024, kernel_size=(5, 5), stride=(1, 1), padding=(2, 2), bias=False)
  (1): BatchNorm2d(1024, eps=1e-05, momentum=0.1, affine=True)
  (2): ReLU(inplace)
), '1x3x1': Sequential(
  (0): Sequential(
    (0): Conv2d(512, 1024, kernel_size=(1, 3), stride=(1, 1), padding=(0, 1), bias=False)
    (1): Conv2d(1024, 1024, kernel_size=(3, 1), stride=(1, 1), padding=(1, 0), bias=False)
  )
  (1): BatchNorm2d(1024, eps=1e-05, momentum=0.1, affine=True)
  (2): ReLU(inplace)
)}, 10: {'1x1': Sequential(
  (0): Conv2d(1024, 1024, kernel_size=(1, 1), stride=(1, 1), bias=False)
  (1): BatchNorm2d(1024, eps=1e-05, momentum=0.1, affine=True)
  (2): ReLU(inplace)
), '3x3': Sequential(
  (0): Conv2d(1024, 1024, kernel_size=(3, 3), stride=(1, 1), padding=(1, 1), bias=False)
  (1): BatchNorm2d(1024, eps=1e-05, momentum=0.1, affine=True)
  (2): ReLU(inplace)
), '5x5': Sequential(
  (0): Conv2d(1024, 1024, kernel_size=(5, 5), stride=(1, 1), padding=(2, 2), bias=False)
  (1): BatchNorm2d(1024, eps=1e-05, momentum=0.1, affine=True)
  (2): ReLU(inplace)
), '1x3x1': Sequential(
  (0): Sequential(
    (0): Conv2d(1024, 1024, kernel_size=(1, 3), stride=(1, 1), padding=(0, 1), bias=False)
    (1): Conv2d(1024, 1024, kernel_size=(3, 1), stride=(1, 1), padding=(1, 0), bias=False)
  )
  (1): BatchNorm2d(1024, eps=1e-05, momentum=0.1, affine=True)
  (2): ReLU(inplace)
)}, 11: {'1x1': Sequential(
  (0): Conv2d(1024, 1024, kernel_size=(1, 1), stride=(1, 1), bias=False)
  (1): BatchNorm2d(1024, eps=1e-05, momentum=0.1, affine=True)
  (2): ReLU(inplace)
), '3x3': Sequential(
  (0): Conv2d(1024, 1024, kernel_size=(3, 3), stride=(1, 1), padding=(1, 1), bias=False)
  (1): BatchNorm2d(1024, eps=1e-05, momentum=0.1, affine=True)
  (2): ReLU(inplace)
), '5x5': Sequential(
  (0): Conv2d(1024, 1024, kernel_size=(5, 5), stride=(1, 1), padding=(2, 2), bias=False)
  (1): BatchNorm2d(1024, eps=1e-05, momentum=0.1, affine=True)
  (2): ReLU(inplace)
), '1x3x1': Sequential(
  (0): Sequential(
    (0): Conv2d(1024, 1024, kernel_size=(1, 3), stride=(1, 1), padding=(0, 1), bias=False)
    (1): Conv2d(1024, 1024, kernel_size=(3, 1), stride=(1, 1), padding=(1, 0), bias=False)
  )
  (1): BatchNorm2d(1024, eps=1e-05, momentum=0.1, affine=True)
  (2): ReLU(inplace)
)}})
# of parameters: 145,759,370
---- begin to init controller-----
===begin to cuda
cuda
finish cuda
=======make optimizer========
=======make optimizer========
finish init
[*] MODEL dir: logs/cifar10_2018-03-26_10-53-43
[*] PARAM path: logs/cifar10_2018-03-26_10-53-43/params.json
loss,  
 2.3281
[torch.cuda.FloatTensor of size 1 (GPU 0)]
…
